models/rnn_model.pth (torch, 809957 bytes, 10 tensors)

rnn.weight_ih_l0 f4 [256, 5]
00000000: 310d 463e fb19 0d3e 7c80 60be fe21 9fbc
00000010: 1a7e 02bb 7ad1 3dbd 50ce 6cbe 1ff5 47bd
00000020: a27c 44be 60a6 25be ee26 96be 1c9d 433e
00000030: 391a b03d 2aca a6bc e191 b3bd 9a67 31be
00000040: 99d9 263e 955a 4e3e 26f3 6f3e f7be 5b3c
00000050: 172a 8b3e 31e7 afbd 1505 973c 6340 743e
00000060: a12b 9d3d bbbe 3e3e 4f9d 133d fd09 d23d
00000070: b5f7 8fbe 2d91 fbbd e755 d8bd 371d 4f3e
00000080: 9a41 55be fd0d 39bd 35dd 553c 6a8b 4d3e
00000090: a0ac 733d bf90 eb3d ed2f 723e 4fda 99bd
000000a0: aaf1 1e3e da26 9f3e 73d9 27be 83eb 283c
000000b0: db02 81bd f772 433e 7707 653e 9050 5ebd
000000c0: 2395 9bbd 13e9 64bd 5a1c b03c 4a10 a13e
000000d0: e248 e53d 3936 8bbd 275e 043d 2521 2dbd
000000e0: 8f3f a63e 9286 51be 6384 bd3d 3f5b 3abd
000000f0: d9db 8e3d ea0a bf3d f20e 213e 65ba 783e
00000100: 5495 1fba 0321 3e3e a557 85be 0fde 323e
00000110: e088 163d cad2 52be 3dd9 ae3c f1e1 85be
00000120: afa6 09be 51c4 4dbe 5a03 5aba a9ba db3d
00000130: a45a 25be e9c3 12bd 569a d0be db67 a5bc
00000140: 40ba 523c b380 b4bd 50e9 42be 5f52 753e
00000150: d653 dd3d 9038 933e 0712 563e 5619 8d3d
00000160: 3ea0 523e 6f6d 113c e6e0 00be 8ce9 f33d
00000170: 9a36 0cbe 6fc5 9f3e 7540 04be e2f5 70be
00000180: e491 efbd 323c 9ebd 5d06 a0be 516d 803d
00000190: 8f77 5ebe c7fa 853e 00e9 803e 2bba e9bd
000001a0: 0f5e a0bd fc7d dbbd eaa9 733e b391 75be
000001b0: e3c7 5c3e d438 763d 546d 79be 35d3 4c3e
000001c0: e854 05be c54f 79bd 145a 663e e750 403e
000001d0: 1d82 3a3e 7749 7f3e 5c73 81be bea6 1a3d
000001e0: 05be a4bd 79df 9d3e f7eb cf3d fba5 383e
000001f0: 840c edbd 193a 3e3c 19a5 90be d062 243e
00000200: b1f8 84be daa3 973d 411b 1dbe bbd3 82be
00000210: b51f cbbd f5f0 403e 0c9e 98bc 3617 883d
00000220: f691 943e 0eaa 243e d54d b73c fcf4 e33b
00000230: 7a59 00be 8102 1ebe 7fcf 6fbe c480 54be
00000240: 0ce0 24bd 85a8 5f3d c5bb 4fbe 380f 663e
00000250: b277 013e 0525 acbd 6871 72bc 7504 87be
00000260: bc18 2fbe 592f 10be 700d 863d f4d0 38be
00000270: 74eb 7d3e 1402 8c3d 8306 8ebe 14bd 5e3d
00000280: 7b10 093e d735 3a3e 75cf 32bd ca9e 533e
00000290: b67e 233e e600 1d3e 0347 61be 6f41 103e
000002a0: c21a 163e 935c a6bd 6f4d b6bd d900 0c3e
000002b0: f114 9d3d 0978 9d3e c5c7 2fbe 64af 44be
000002c0: 666a 85be efe1 603e 7b69 86bd 09f9 003c
000002d0: f51d 32be ae9e 93bb 6f92 513e c6db 8e3e
000002e0: 1c31 e5bd cc41 143e f734 023e 621b 6a3e
000002f0: 8ce0 10be d061 6d3c 6fbb 2dbe 5575 8b3e
00000300: 6186 91bc ecfc aa3d 8a08 0cbe 5def 2e3d
00000310: 5815 8d3e 1a52 1a3e e86d e03d b0bf e73c
00000320: 9300 e13c c716 78be 290a 2f3d 64e7 9f3e
00000330: d9b4 c9bc 298b 3ebe 2e51 0b3d e8f8 97bd
00000340: 21b8 8dbe c4a6 2abd 0fcf 95be e899 6d3e
00000350: a1a3 1fbe d1e8 653e 6d80 a03a 34de 1bbc
00000360: 2645 8b3e 9cea 09be 7855 65be 0448 84bd
00000370: a088 3cbd 45ef a5be f026 7c3d 2b31 02bc
00000380: 1124 8cbd c5b4 693e 88ee 72be b854 683d
00000390: b6b5 7cbd eb2c ee3b 6f30 8fbd 4b8d aabe
000003a0: 4574 ee3d d532 d7bd 6f5b 98bc 0e36 183e
000003b0: 3504 8fbe d8c9 3d3e edc7 2bbe 99aa 2dbd
000003c0: fc68 24bd 4b32 8dbe 9763 e53d 3c14 4f3e
000003d0: d40a e238 2870 02be 0739 95be 7016 583e
000003e0: 2871 04bd 9dab 41bd b2d7 adbe 9123 cabd
000003f0: 008b e737 491a 54be 397b 26bc 9758 d1bc
0.1934097 0.13779442 -0.21924013 -0.019425388 -0.0019911588 -0.04634235 -0.23125577 -0.04881775
-0.19188169 -0.16176748 -0.29326576 0.19102901 0.085987516 -0.020360071 -0.087680586 -0.17324677
0.16293944 0.20151742 0.23432598 0.013412229 0.2718055 -0.08589018 0.01843504 0.23852687
0.07674337 0.18627445 0.036038693 0.10255811 -0.28118673 -0.122835495 -0.105632596 0.20225988
-0.20825806 -0.045179356 0.013053228 0.20072713 0.0594908 0.115022175 0.23651095 -0.07512342
0.15521875 0.3108433 -0.16391544 0.010310057 -0.06299373 0.19086824 0.22366129 -0.05427605
-0.07596805 -0.05588634 0.021497894 0.3145774 0.11195542 -0.067974515 0.032316353 -0.042267937
0.32470366 -0.20461491 0.092537664 -0.045497175 0.06975526 0.093282536 0.15728357 0.24289854
-0.000608762 0.1856728 -0.2604343 0.17467521 0.036751628 -0.20588222 0.021343822 -0.26148942
-0.13442491 -0.2009442 -0.00083165395 0.10728962 -0.16147858 -0.035831366 -0.4074275 -0.020191124
0.012861788 -0.0881361 -0.19034314 0.23957203 0.10807006 0.2875409 0.20905314 0.06889598
0.2056894 0.008876189 -0.12585792 0.1190978 -0.13692704 0.31205317 -0.12915213 -0.23531297
-0.11697748 -0.07726325 -0.31254855 0.062708504 -0.21725295 0.2616789 0.25177765 -0.11412462
-0.0783044 -0.10717389 0.23795286 -0.23981361 0.21560626 0.06011279 -0.24358112 0.20002444
-0.1302067 -0.06086709 0.224953 0.18780862 0.18213697 0.24930368 -0.25283325 0.037756674
-0.08044056 0.3083456 0.101524286 0.18032067 -0.11574653 0.011610531 -0.2825096 0.16053319
-0.25970986 0.07404299 -0.15342428 -0.25552163 -0.09918157 0.18841918 -0.01863005 0.06645052
0.2901761 0.16080496 0.02237598 0.0069566946 -0.12534133 -0.15430643 -0.23418997 -0.20752245
-0.04025273 0.054604072 -0.20286472 0.22466743 0.12643316 -0.084054984 -0.014797546 -0.26370588
-0.17099279 -0.14080562 0.06545532 -0.1804846 0.2479685 0.06836334 -0.27739343 0.054379538
0.13385193 0.18184601 -0.043654878 0.20666042 0.15966305 0.15332374 -0.21999745 0.14087461
0.14658645 -0.08123126 -0.08901488 0.13672198 0.0767001 0.30755642 -0.1716605 -0.19207531
-0.26057738 0.21961187 -0.065630876 0.007871875 -0.1739424 -0.004505 0.20466016 0.2790205
-0.111910075 0.14478225 0.12715517 0.22862008 -0.14148158 0.014488652 -0.16966031 0.27237955
-0.017764272 0.08349022 -0.13675132 0.042708743 0.27555346 0.15070382 0.10958463 0.028289646
0.027466094 -0.24227439 0.0427343 0.31231225 -0.024622368 -0.18607773 0.034012966 -0.07420522
-0.27679542 -0.041662946 -0.29259536 0.23203242 -0.15589763 0.22452094 0.0012245305 -0.009513427
0.27201194 -0.13468403 -0.22395885 -0.064590484 -0.046028733 -0.3240911 0.06156057 -0.007946293
-0.068428166 0.22822864 -0.23723805 0.05672142 -0.06169673 0.0072685382 -0.0699166 -0.33310923
0.116432704 -0.10507742 -0.018598286 0.1486437 -0.27932897 0.18534029 -0.16775484 -0.042399023
-0.040139183 -0.27577433 0.11200636 0.20222563 0.00010778537 -0.12738097 -0.2914507 0.21102309
-0.032334477 -0.047282804 -0.33953625 -0.09870065 2.7602073e-05 -0.20713152 -0.0101612145 -0.025554938

rnn.weight_hh_l0 f4 [256, 256]
00000000: 0483 d43c befb 6cbd d073 13bd 3845 a0bc
00000010: 08f3 b3bc 6c09 7fbd ccf1 c1bc c0aa 7f3d
00000020: 6ada 073d 9015 75bc a28f 27bd 4874 5d3c
00000030: 025b 42bd 1a75 643d e25f 423d 343f 52bd
00000040: 9050 b8bc b865 5bbc c0b2 9ebb 5a11 12bd
00000050: ceb9 1e3d bad6 6e3d be3e 253d 5410 efbc
00000060: cc08 b43c 8064 bcbb b8f7 6abc e047 233b
00000070: 1e68 6a3d b020 f6bb b0c0 1ebd 2ef9 1e3d
00000080: 702c 6b3d d4ad 7bbd 227b 03bd 0017 e83b
00000090: b42f d03c 1030 6abc 7ccb 053d f01d f2bc
000000a0: a451 9dbc 503b 70bd 6c96 86bc c05e d1bb
000000b0: b485 ccbc 4c86 9ebc 08da 753c 12b6 19bd
000000c0: b4d2 2e3d da50 1cbd d0f0 78bd 20c0 4a3c
000000d0: b4c1 d8bc 6057 d03c f0a0 a6bb bafa 62bd
000000e0: b045 ccbb f87e 303d b41f bc3c 8034 663b
000000f0: 289e 31bd 4a95 3d3d c2ff 493d 2431 6ebd
00000100: d4fc 16bd 2eeb 1dbd b8b6 dd3c 5471 edbc
00000110: 1488 3abd 1e6c 69bd 3c3f 3a3d 8c3a 4b3d
00000120: 5804 3bbc 1ad3 2ebd d051 53bd a4ad 263d
00000130: 168f 323d 68ec b73c 884d 493d 400b ebba
00000140: 8caf 033d 9046 bf3b ca60 013d b254 7dbd
00000150: 80f7 39bd f057 8abb 68f8 43bc 0412 13bd
00000160: 946b c2bc 7012 023d 9812 563d 76b6 0e3d
00000170: a8da 44bd f272 02bd e074 f13b c027 11bc
00000180: 1646 153d 60d5 cabc b055 cbbc 9cf6 ae3c
00000190: c0a6 caba 64a3 aebc 3083 ba3b 101a 6cbd
000001a0: 926d 59bd d0a8 683d 08ac b8bc f08a 383d
000001b0: def6 233d bcec c23c f61a 1abd f4ca 2bbd
000001c0: cc3d 09bd a2fa 7c3d c080 80bc 1eff 54bd
000001d0: 1813 f5bc 4038 94bb 00f4 cbb9 c858 c43c
000001e0: 9c5a b3bc 34de f43c 440a 6f3d b06e 91bb
000001f0: 6a61 3f3d 68a0 fcbc 9cee dd3c 60cb 2abb
00000200: 285d 9e3c e049 213b 38a5 31bd b4da ffbc
00000210: c469 973c a888 41bd 90aa 5bbc 38c6 d53c
00000220: f079 61bd cc3c 823c fabf 3dbd 107d 18bc
00000230: f625 0fbd 6421 55bd cc57 93bc 40bd b9bc
00000240: f010 72bd d434 7abd 6065 ccbb 4054 30bb
00000250: fc73 423d 8c72 c7bc 7219 31bd a41f 153d
00000260: c2a0 4e3d 961d 23bd 10b1 ed3c e0bf 91bb
00000270: e8e7 863c 0cd9 7dbd f8a3 10bc e82f a9bc
00000280: f009 93bc 7e92 3c3d f034 1b3d 149d 333d
00000290: 0a34 3bbd 2ccf 7d3d 9c6a 19bd 98c6 e7bc
000002a0: e0cc 4dbc e83c e5bc cc58 8fbc 9c9f 58bd
000002b0: dea3 113d 2c8a 303d 9cf1 283d 4009 c43b
000002c0: fe75 56bd c812 0c3c 0073 5d3b 585c 7f3d
000002d0: 9066 1e3c 004c 9dbb 104a b93c b03a eabc
000002e0: a8d1 4c3c 68c1 9e3c 901e 3dbc 801e 803b
000002f0: ca1e 18bd c653 5a3d 94bf 09bd d8d1 d5bc
00000300: 7434 7dbd a615 3d3d 845e 2b3d dc29 123d
00000310: e018 a1bc d049 963b e077 5a3b d09e 863b
00000320: d06b c63c e4c9 ee3c a4d4 893c 309a 143c
00000330: d8ac 00bc 8081 54ba 507b 73bc 3630 49bd
00000340: de8a 73bd 8081 00bb 7cca 2c3d 2451 90bc
00000350: 805e 7fbc b0c6 c1bb aa82 293d c2a7 33bd
00000360: b801 23bc 308b a53c 86c7 34bd 286f 1abd
00000370: 681f 563d 6eac 023d 80d4 a8bb 4cb4 26bd
00000380: 42d3 1a3d 6a14 1bbd 40a9 703b 82ab 723d
00000390: 1864 6fbd 3827 563d 8040 e0bc 10b3 8bbc
000003a0: 8a90 74bd d0cb 4cbd 6091 953c 947f 403d
000003b0: 9018 a83b 34ed 66bd a02a 3fbc d28e 0d3d
000003c0: 56ee 41bd 4a0f 6dbd c429 e2bc 86dd 3d3d
000003d0: c6c0 223d 603c 05bb 749d 6ebd 2803 483c
000003e0: 9c05 90bc 8a47 03bd 7459 debc e07b c0bc
000003f0: 249d 353d 5485 e73c 400b e6ba b082 9b3c
0.02594138 -0.057857268 -0.03599912 -0.019564256 -0.021966472 -0.062264845 -0.023674868 0.0624187
0.03316728 -0.014958754 -0.040908463 0.013516493 -0.047450073 0.05577574 0.047454722 -0.051329806
-0.022499353 -0.013390951 -0.004843086 -0.03566108 0.038751416 0.058310248 0.04034304 -0.02918259
0.02197685 -0.005749285 -0.014341287 0.0024914667 0.0572282 -0.007511221 -0.03875798 0.038811855
0.057415426 -0.061445072 -0.03209985 0.00708282 0.025413372 -0.014293686 0.03266476 -0.029555291
-0.019203968 -0.058650315 -0.016429149 -0.006389469 -0.024966098 -0.019351147 0.015005596 -0.03752715
0.04268141 -0.038163044 -0.06077653 0.012374908 -0.026459552 0.025432289 -0.005085103 -0.055414893
-0.0062338933 0.043089837 0.022964336 0.0035126507 -0.04336372 0.04628495 0.049316175 -0.058152333
-0.03686221 -0.038554363 0.027064666 -0.028984703 -0.04553993 -0.056987874 0.04547046 0.04961638
-0.01141461 -0.04268179 -0.051591694 0.04069294 0.04359349 0.022451594 0.049146205 -0.001793243
0.032149836 0.005837269 0.031586446 -0.06184835 -0.04540205 -0.0042219087 -0.01196108 -0.035905853
-0.023732938 0.031755865 0.052263826 0.034841977 -0.04806009 -0.0318479 0.007368669 -0.008859575
0.036443792 -0.024759948 -0.024821132 0.021357827 -0.0015461072 -0.021318145 0.0056919083 -0.057642043
-0.05308301 0.056801617 -0.022542968 0.045054376 0.040030353 0.023794524 -0.03762337 -0.041941598
-0.0335062 0.06176246 -0.015686393 -0.05200111 -0.029916331 -0.004523307 -0.0003890097 0.023968115
-0.021893792 0.029891111 0.0583594 -0.004438244 0.04672376 -0.030838206 0.027091317 -0.0026061162
0.01933153 0.0024610683 -0.043370456 -0.031232215 0.01848305 -0.047249466 -0.0134073645 0.026095495
-0.05504793 0.01589813 -0.04632566 -0.009307161 -0.03494831 -0.052033797 -0.0179862 -0.02267325
-0.059098184 -0.061085537 -0.006237671 -0.0026905686 0.047473893 -0.024346612 -0.043237157 0.036407128
0.05044628 -0.039823137 0.029015094 -0.004447922 0.016468003 -0.06197457 -0.008828156 -0.020652726
-0.017949075 0.046038143 0.037892282 0.043850973 -0.045703925 0.061965153 -0.037455186 -0.028292939
-0.012561053 -0.027983144 -0.017498396 -0.05288659 0.035556667 0.04310052 0.04124604 0.005982548
-0.05235862 0.0085494 0.003379047 0.062343925 0.0096680075 -0.0048003197 0.022618324 -0.028592438
0.012501158 0.019379333 -0.011542931 0.003909886 -0.037138738 0.05330255 -0.03362997 -0.026101038
-0.0618176 0.046163224 0.041838184 0.03568445 -0.019665182 0.004586436 0.0033335611 0.0041082874
0.02422133 0.029149003 0.016825028 0.009069964 -0.007853709 -0.0008106455 -0.014860943 -0.049118243
-0.059458606 -0.0019608438 0.04218529 -0.017616816 -0.015586495 -0.005913578 0.041384377 -0.04386116
-0.00994914 0.020207971 -0.044135593 -0.037703663 0.052276045 0.031902723 -0.005152285 -0.04069929
0.037799127 -0.037861265 0.0036721975 0.059245594 -0.058445066 0.052283496 -0.027374506 -0.017053157
-0.059708156 -0.04999906 0.018257797 0.046996668 0.005129881 -0.05637856 -0.011667877 0.034560032
-0.047346435 -0.05787591 -0.027607806 0.04635384 0.039734624 -0.0020330176 -0.058255628 0.012207784
-0.0175808 -0.032050647 -0.027142264 -0.023496568 0.044339314 0.028261818 -0.001755096 0.018983215

rnn.bias_ih_l0 f4 [256]
00000000: a5d3 9bbd e74f d9bd efea 6b3d 6858 7a3d
00000010: 6be2 82bd c382 cd3d 367a c63d d80c 193e
00000020: 3576 54bd a1c0 203e f025 d43d 616b 5e3d
00000030: 0425 efbd b681 ca3d 25fd eebd 605f ba3d
00000040: 506e a5bc dc86 e6bc a9a0 ee3c 251f d0bc
00000050: 48fa 9abd 3a7b f0bd 51d4 603d 3c8b 7ebd
00000060: 0420 403d a0cb 833d ee5e a3bd d2eb 7e3d
00000070: 16a0 3a3e c268 0e3e 892b 0abe e4f1 eabd
00000080: 6bb0 053c 045f c6bd 54bb aa3d 5343 f63d
00000090: c61b 8bbc 7596 843d 4a57 e23d 0e45 a03d
000000a0: 8783 ed3d 8054 ac3c e7e6 5a3d 182b c6bc
000000b0: f065 f1bd 2e3d 4cbd b142 0ebe 1e41 873d
000000c0: 466a f13c cb9d 753a 3924 0d3d 26d8 73bd
000000d0: b501 afbd a7b6 9bbd db44 a1bd d2a2 1a3d
000000e0: 4aee e0bd 586d 823d 0d70 bb3d 11df 563b
000000f0: b806 7c3d 3c7c 75bd 9671 f93d 3c8c 1d3e
00000100: a835 bc3d 0d75 2fbd 84c4 473d 54bc 023b
00000110: d2e5 dabd 1ae3 573d a4b8 253d 7ab5 b5bc
00000120: 5f1c b5bd d8d8 28bd 134d b23b 4990 7e3d
00000130: 4459 933d 4105 5a3d 1a7e 143d 5d12 21be
00000140: 7c59 1eba a88d dd3d bb8f d43d f7e3 003d
00000150: eddf 12be 2fa0 84bd fbf0 09be f95b bf3d
00000160: 2d05 043d 37cc 39be f482 493d e84b f63d
00000170: 106f c13d 00df 9fbd 85cd debd 1e58 37bd
00000180: 8bc4 d0bd 8692 38be fd2f 0f3c 8d44 f1bd
00000190: 284a 423d 4f4d 45bd 34c9 e33d 76de 203e
000001a0: e1cf 1dbe badf f33d d3b7 c43d 238d 403e
000001b0: fa74 1fbe 0abb 593d a8fa f83d 4a90 abbd
000001c0: 329e 3e3e 9d18 443d 9a03 133e 259b d8bb
000001d0: 2e3d c13d 74bc 13be 2975 df3c f624 a83d
000001e0: c240 a33d 0dba 283e 709a 123e 771a ac3b
000001f0: 06aa 933d e32d 103c 2394 ef3d 5bf7 0abe
00000200: 2ec1 2d3e 8821 12be 7ee8 453e 94f0 88bd
00000210: 70ef 83bd a738 973d 2305 a73d f893 e83c
00000220: 7aa8 9ebd 7e16 103c 15a7 1a3e b05e 0a3d
00000230: c0a7 843c 360e 06bd ec39 153d 437e 793d
00000240: 3808 cc3c 709a c3bd 92df 4a3d c7d9 a43d
00000250: cca0 b8bc 7843 c93b 12e1 babd eb1a f63d
00000260: 1bb3 21be 362e 9ebc b77b 103d a9e7 c53d
00000270: 1a27 c93d 1ebc 0a3e d3ed 16be 903e a8bd
00000280: e6c9 953d 3a94 8ebd 05ae bebd 2f50 483d
00000290: 3a23 48bd 08df 3bbd 352c 4d3e ce84 d1bc
000002a0: 6339 e43d 9aa7 b8bd c3b7 ffbd c4e2 7b3d
000002b0: 44ba 163e ba25 c6bc d1bc 19be 24d2 d4bd
000002c0: ae46 eabd 9e22 9fbd 61cd 53bd 1532 143e
000002d0: 2a76 7abd 9b90 9abd df0c a8bd eef2 20be
000002e0: 267d 273e d486 28bd 8153 fd3d 0ca1 d03d
000002f0: 643c 9bbd 2ae8 e33d a4d0 e93d ef68 b7bd
00000300: bc46 2c3e 1bbb 3cbe c44b 243e a5ac 1a3d
00000310: f561 da3d e58b e73d 76ee 0ebe 132b c8bd
00000320: e428 3bbe 1371 8ebb 50b2 fc3d 364c 68ba
00000330: 10e3 023e c5ac e63d 2ec6 c63d d831 993d
00000340: 0f63 46bd 3f66 363d 6beb f8bd e989 06be
00000350: f453 873d a2f2 933d d757 16bd 3c9c 09be
00000360: f646 4c3d 4bb2 89bc ddab 95bd 128c 0f3d
00000370: 261f 193e 2d38 2e3e c6f5 0cbe f81b 38be
00000380: d6bb 273d 9a47 85bd 5b06 0e3e fbac af3d
00000390: 3635 143e 78d6 ec3b 63c1 0fbc 9356 7e3d
000003a0: 2f10 d33c a776 f2bd d14d 033e e0b3 9c3c
000003b0: ae1c 6f3d 9734 47bd 4903 783d 3c59 42bc
000003c0: 426f 6abd e583 73bc 5518 9a3d cf55 1ebe
000003d0: b7f0 9abd 99fe 95bd f6fd 763d 3d08 693d
000003e0: 0880 acbd 49a1 c9bd 0c46 ebbd 8e48 e23d
000003f0: 6085 f53d 0741 f93d b5d6 37be b464 e1bd
-0.07608727 -0.10610943 0.057597097 0.061119467 -0.06390842 0.100347064 0.09691279 0.14946306
-0.051870544 0.15698482 0.103587985 0.054301623 -0.11676982 0.09888022 -0.11669377 0.091002226
-0.020194203 -0.028140478 0.029129343 -0.025405476 -0.075672686 -0.117422536 0.05488998 -0.062144503
0.046905532 0.06435323 -0.07977091 0.062236615 0.1822513 0.1390715 -0.1349317 -0.11471918
0.008159737 -0.096860915 0.08336511 0.1202456 -0.016981017 0.0647401 0.11051805 0.07825671
0.115973525 0.021036386 0.053442862 -0.02419047 -0.11787021 -0.049863033 -0.13892628 0.06604217
0.02946962 0.0009369521 0.034458373 -0.059532307 -0.085452475 -0.076031975 -0.07874461 0.037752934
-0.1098295 0.06368512 0.09152231 0.0032786767 0.061529845 -0.059932932 0.12179868 0.15385526
0.091899216 -0.042836238 0.048771396 0.0019948678 -0.10688366 0.052706815 0.04045929 -0.022181261
-0.08843302 -0.041222423 0.005441317 0.06214932 0.071947604 0.053227667 0.036253072 -0.15729661
-0.0006040556 0.108180344 0.10378977 0.031467404 -0.14343233 -0.06475865 -0.13470833 0.09343714
0.0322315 -0.18144308 0.049197152 0.12026197 0.094450116 -0.07806206 -0.108790435 -0.04476177
-0.101937376 -0.18024644 0.008739469 -0.11780653 0.047434002 -0.04816943 0.11122361 0.15709862
-0.15411331 0.11907907 0.09605374 0.1880384 -0.15571967 0.05315689 0.12157184 -0.0837713
0.18615034 0.047875036 0.14356843 -0.0066102915 0.09435497 -0.14427358 0.027277546 0.08210175
0.07971336 0.16477223 0.14316726 0.0052521783 0.07210164 0.008800003 0.11698177 -0.13570921
0.16968223 -0.14270604 0.1932697 -0.06686512 -0.064421535 0.073838525 0.081552766 0.02839087
-0.07746978 0.008794425 0.15102799 0.033781707 0.01619327 -0.032728396 0.03643219 0.06091143
0.024906263 -0.09550941 0.04952962 0.0804935 -0.022537611 0.006142076 -0.0912496 0.12016853
-0.1579098 -0.019309144 0.035274234 0.09663326 0.09821911 0.13548324 -0.1473916 -0.08215058
0.073139 -0.06961866 -0.09310535 0.048904594 -0.04886172 -0.045866996 0.20036395 -0.025576022
0.11143758 -0.090163425 -0.12486222 0.061495557 0.14719492 -0.024187911 -0.15013434 -0.10391644
-0.11439262 -0.077702746 -0.051709536 0.1447223 -0.061147846 -0.075471126 -0.0820558 -0.1571767
0.16356334 -0.041144207 0.12369443 0.10186967 -0.07579878 0.11128266 0.11416748 -0.08955561
0.16823858 -0.1843075 0.16044527 0.037762303 0.10663215 0.1130598 -0.13958153 -0.09773841
-0.18277317 -0.0043469756 0.12338698 -0.0008861454 0.1278193 0.11263422 0.097057685 0.0748021
-0.048434313 0.044531103 -0.121542774 -0.13138546 0.0660781 0.07224013 -0.036704864 -0.13438505
0.04987236 -0.01680865 -0.07308171 0.03504569 0.14953288 0.17013617 -0.1376563 -0.17979419
0.04095062 -0.065077975 0.13869612 0.08577915 0.14473423 0.007227715 -0.008774134 0.062094282
0.025764553 -0.118390374 0.12822653 0.01912874 0.05837696 -0.048634138 0.060550008 -0.011862095
-0.05723501 -0.014862989 0.07524172 -0.15462421 -0.07565444 -0.07323951 0.06030079 0.056892622
-0.084228575 -0.09845216 -0.1148797 0.11048995 0.1198833 0.12170606 -0.17952998 -0.11005536

rnn.bias_hh_l0 f4 [256]
00000000: 008b 02be 9b35 92bd 51a8 b03d de67 21bc
00000010: da8d bbbd edd2 fc3d ae0a 783d 76ee 3d3d
00000020: d99a 19bd cbdb 3b3d c05e 023e deab dd3c
00000030: d517 28be 9951 073e 41e5 c8bd bd25 e63d
00000040: 90e4 ccbd 08b0 f3bd 45d6 6d3d b232 fabc
00000050: adc3 05be 9adb 9abd 17e1 90bb 2d70 9c3c
00000060: 6094 b33d c3f6 983c fb6c 3bbc ff57 c63d
00000070: 5208 383e 774d cf3d 2bdb fdbd 6cec f2bd
00000080: 7d29 2e3d 7802 f0bd 9459 8f3b 80f7 0a3e
00000090: f979 9f3d 7ee6 4c3d 8807 be3d fa90 1d3e
000000a0: 7f5d 123e ae71 e33d 37d5 25bd e356 03bd
000000b0: dee4 dfbd 8a04 78bd b87a adbd 003f c9bb
000000c0: 9552 863d 6d49 903d d742 cebc 8f2c c6bd
000000d0: f515 12bd 3556 46bd 7a1e 8abd 456c aa3c
000000e0: 2b97 71bd 9f67 003e 5332 c13d fad8 22bd
000000f0: f310 453d 796c 2dbd bc6e a83d 24e0 223e
00000100: c8fb c93d 95a8 8bbc a4c7 89bc 55bb 65bc
00000110: d0a9 b8bd f5df e23d 231b ee3d 2fa6 d6bd
00000120: a434 60bd eb04 51bd 3289 99bc 04c9 ad3d
00000130: 7d8d f43d da6a 8b3d 4ecf a63d 8186 19be
00000140: c82a 68bb 6a8e 043e f14e cd3d aca0 3e3d
00000150: ac28 bcbd 79ea 3dbe affe 36be 2fc0 153d
00000160: d237 69bd 199f ebbd f725 c63d f479 5c3d
00000170: e232 893d ec22 0abe 725a ecbd 5d4d 803d
00000180: 7d02 8cbd c4cc 24be bb73 41bc 6da6 a7bd
00000190: 819b 843c 716e 10bd da63 e83d d23d 183d
000001a0: dfc2 e3bd 0426 0f3e ad02 f83d f0cf 213e
000001b0: 8005 37be 24a3 293d 8a32 013e 99c0 f2bd
000001c0: 54db 263e bdd5 f33d 1742 043e 8112 25bc
000001d0: 7408 e63d 7c6c 08be ea9c f33d 7531 043d
000001e0: 2812 d33d 6300 1c3e 3e7d b03d 8906 803d
000001f0: bd81 0fbc c3d5 85bd d527 d43d 9e84 09be
00000200: acba c63d bdc7 cfbd 16a3 df3d 9e5b c8bd
00000210: 7a35 bbbc d1f1 b43d 0efc 223d deff f33d
00000220: 582c 06bc 96b6 8ebd 1627 063e 13e4 bfbc
00000230: ad73 84bd 99c0 423d 4d27 ea3c 29cb e23c
00000240: d960 0dba aacf a5bd 77a6 2b3c 90ab 3b3d
00000250: d17b 0dbd eda2 523d d19b ac3c 37a9 943c
00000260: ef85 f6bd 858b cbbd 15ed 853d 29b5 623d
00000270: 04c9 003d 929a 703d 23b1 1bbe 7c21 563b
00000280: d016 e33d 2ef1 97bd bee7 e5bc 7dab 023e
00000290: a582 98bd cd81 3d3c b1ab 493e 3c17 c33c
000002a0: 39e5 123e 2ce8 94bd e0ff 0cbe 7446 8d3d
000002b0: 9860 413e add1 9c3d 09b0 a7bd 8e77 fbbd
000002c0: aaac 9cbd a78f 82bd 40c4 8cbd bdf4 ff3d
000002d0: 47a8 d5bd 719a 97bd 3b28 61bd 072d e3bd
000002e0: f972 ed3d 2f5f bf3c 481a eb3c 7c8e bb3d
000002f0: 60a5 153c 41d6 1f3e 21e3 0f3e 4b01 c1bd
00000300: e1ff 153e cc1e e0bd 4cb6 5b3e 6f28 013e
00000310: d7b6 e83d 25cd da3d 70d9 94bd 641f c6bc
00000320: 6a28 2bbe 2f7d 7a3d cb9c fe3d 2cab f7bc
00000330: 0c6e 893d e510 6b3d ff37 383e 5e89 8a3d
00000340: d876 bfbd f262 0cbd 68a7 5fbd 7385 03be
00000350: 7431 e63d a1d3 cf3d 18d4 61bb 28ab 14be
00000360: 3885 a5bc bdf7 ecbd 033a e5bd c9aa a23c
00000370: 7193 ef3d 91cb 9a3d be08 abbd f226 2bbe
00000380: 7831 3c3d b55c 0fbd 6337 e03d 41d9 8b3d
00000390: 499c f03d df72 af3c 01e0 15bd fd0a 44bd
000003a0: 1239 0dbd c72c a8bd a9d7 0b3e 4824 3dbd
000003b0: ab18 5a3c 785c edbd 4387 8b3d 8872 a2bd
000003c0: c7c2 babd 9670 9fbd 86ed 353d a32c 19be
000003d0: cd8a 09bc 8539 98bd bd21 9ebc c1a8 3dbd
000003e0: c05e 16be c922 e1bd e39d 29bd ae71 dc3d
000003f0: 9652 2f3e d61c 183e 2a42 9bbd 3ec2 b4bd
-0.12748337 -0.07139131 0.08625854 -0.009851424 -0.091579154 0.123449184 0.06055706 0.046369992
-0.03750119 0.045863908 0.12731457 0.027059492 -0.16415341 0.13214721 -0.09809352 0.11237667
-0.10004532 -0.1189881 0.05806567 -0.030541752 -0.13062926 -0.07561417 -0.004421364 0.019096458
0.08768535 0.018672353 -0.011439557 0.09684753 0.17971924 0.10122197 -0.123953186 -0.118615
0.042520035 -0.11719221 0.004374692 0.13570976 0.07786936 0.050024502 0.0927878 0.15387335
0.14293478 0.11105667 -0.04048654 -0.032065284 -0.10932325 -0.060551204 -0.08470672 -0.0061415434
0.0655872 0.07045255 -0.025178356 -0.096764676 -0.03566547 -0.048422057 -0.06744094 0.02080358
-0.058982056 0.12539528 0.09433427 -0.039757706 0.048111867 -0.042339776 0.08224246 0.15905815
0.098624766 -0.01704816 -0.016818829 -0.014021714 -0.09016764 0.11077873 0.1162627 -0.10480916
-0.054737702 -0.05103008 -0.018742178 0.08485606 0.11941049 0.0680749 0.08145009 -0.14992715
-0.003542589 0.12944952 0.100248225 0.046539947 -0.09187445 -0.18546475 -0.17870592 0.036560234
-0.056938 -0.11504955 0.0967521 0.05382724 0.06699158 -0.13489884 -0.115406886 0.06264756
-0.06836412 -0.16093737 -0.011807377 -0.0818604 0.016187431 -0.035261575 0.1134717 0.03716833
-0.11121153 0.13979346 0.12109885 0.15801978 -0.17873192 0.04141535 0.12616935 -0.11853141
0.16294605 0.11906002 0.12915836 -0.010075212 0.11232081 -0.13322634 0.11895163 0.03227373
0.103061974 0.15234523 0.08617638 0.062512465 -0.008758959 -0.065349124 0.1035916 -0.13429496
0.097035736 -0.10145519 0.10919778 -0.097830996 -0.022852648 0.08835185 0.03979116 0.11914037
-0.008189283 -0.06968419 0.13100848 -0.023424184 -0.06467376 0.047546957 0.028583193 0.027684765
-0.00053931546 -0.080962494 0.0104767 0.04581791 -0.03454191 0.05142491 0.021070393 0.018147094
-0.120372646 -0.099387206 0.065393604 0.05534855 0.031441703 0.05874116 -0.15204291 0.0032673767
0.110883355 -0.07419048 -0.028064605 0.1276073 -0.074467935 0.011566591 0.19694401 0.02381479
0.14345254 -0.07270846 -0.13769484 0.068982035 0.18884504 0.0765718 -0.08187873 -0.122786626
-0.076501206 -0.06375056 -0.06873369 0.12497852 -0.10432487 -0.07402504 -0.054970007 -0.11092573
0.11594195 0.023360817 0.028699055 0.09158036 0.009133667 0.15609075 0.14051487 -0.09424075
0.14648391 -0.10943374 0.2145626 0.1261308 0.11362999 0.106836595 -0.072680354 -0.02418489
-0.16714635 0.06115454 0.1243225 -0.030232988 0.06710443 0.05738916 0.17990111 0.06764482
-0.093488395 -0.03427405 -0.05460301 -0.12843876 0.11239901 0.10147787 -0.0034458693 -0.14518416
-0.020205125 -0.1157069 -0.111927055 0.019856827 0.11698044 0.075583585 -0.08351277 -0.16714075
0.045945615 -0.03500052 0.10948064 0.06828547 0.11748559 0.02141708 -0.03659058 -0.04786204
-0.034478255 -0.082116656 0.13656487 -0.04617718 0.013311545 -0.11589903 0.068129085 -0.07932001
-0.09119182 -0.07785146 0.044415973 -0.14958434 -0.008394909 -0.07432846 -0.019303197 -0.046303514
-0.14684582 -0.10992963 -0.041410338 0.1076387 0.17121348 0.1485475 -0.07580979 -0.08826111

rnn.weight_ih_l1 f4 [256, 256]
00000000: 1b79 48bd 38a8 2bbe eabe 52bd 51ae a33d
00000010: 6f0a e53d db4b 673d 3910 fcbd f0d7 7d3e
00000020: 10c3 e2bc e386 f6bc dea2 fa3c e880 c7bb
00000030: f3c0 703d cd9b 2a3e 001f 69be d75c a9bd
00000040: e5fb 363b 4a76 f43d 095f 1c3e eca9 92be
00000050: a94b e1bc 92bb 8dbd d085 6fbe 4d05 11bd
00000060: 82e6 403e e5f2 fdbd 186b 443d 1b50 c13d
00000070: da11 b13c b9ea 803e f4ad 8abe 407a 62be
00000080: 0d36 e63d 56cd 853d 7e9f 713e e965 293c
00000090: b20d be3d f56f 53bc 28d2 f9bb 3ef8 943b
000000a0: 03af 3e3e 3b3f 7cbe 002d 42bd 03ea 73be
000000b0: 170e 08bd 3013 943b d595 b6bd 3dc2 0f3e
000000c0: bfe2 953e 2a08 8d3d 7683 50be e5ef 84bd
000000d0: 48cd 2fbd 06b9 96bd 1440 ca3d a5ee 14be
000000e0: 7d1d 84bd 7e56 c0bd 3c11 45bd 1d44 1c3e
000000f0: fa00 8e3e bb30 283d ab72 1b3e fbca 4abd
00000100: a1ea 6ebd 37e4 edbd 615b 9fbd 8c5f 64be
00000110: ec56 863c a2ea dbbd d7d9 823e f559 c6bd
00000120: 13eb 82bb 0270 fbbc 5d93 04be d4d6 1fbd
00000130: 3c63 b53d 7a64 94bd 3696 d23c 3fc1 dabd
00000140: 55dc 7f3d 5652 2a3e fd9b 783d 7a5a 28be
00000150: 01e2 62bd 0093 6ebe ccca 4f3b a465 19bd
00000160: aa0f d0bc b2e5 003e aec6 94bd 0be4 5abe
00000170: 8845 87bd 74a0 243e 9039 fb3b 6872 3abc
00000180: 3cd3 0abe 6cb6 0abe f02d 333e cdf3 10be
00000190: 7212 4e3e 432e e23d 2434 82bd 6063 34be
000001a0: 8a13 9bbd cfbb ad3d d698 6e3d 544f c13d
000001b0: bef2 ac3d 160c 13be 4ba3 b13d 3979 203e
000001c0: 1a5d 25be a1f4 0dbe abcb dabd d4f6 523d
000001d0: 53dd ae3d cae7 3ebb 6a59 8abd 1c24 233e
000001e0: 442f 373e effe d8bd ccf5 643e 1b44 babd
000001f0: 5051 1ebe 13e4 3c3e 03cd 653e 56b7 793d
00000200: ce54 86bd ab84 32bd 79ff bfbd edb0 b7bd
00000210: 701f ac3d 9235 c2bc 6f07 e9bd c0ca b43c
00000220: df4f fa3d 4012 8b3d f3fd 973b 106b fd3d
00000230: 64a3 73be b38d 633c 8084 b03c 3cc8 36bc
00000240: 7480 4d3e 63eb 8dbb 3257 673e e394 05ba
00000250: 7dd2 4cbe 4f02 c13e 7282 08be baf5 e53d
00000260: 4b04 8fbe 3771 42be e305 f13d 2bf3 0ebe
00000270: 72f8 153e e8f8 e73d c129 863d 5459 05bd
00000280: 0c57 debd b0d3 7bbd 55b8 c53d 4064 263d
00000290: f45a 85bd eb97 a63d 0c29 a1bd 66ea f0bd
000002a0: 785f 66be de45 6d3d 4e33 413d c491 213d
000002b0: 6595 7dbd ed56 533d f8d6 03be 7f46 5dbe
000002c0: 33cd 00be f4dc 81be 8792 85bd e8c4 15bc
000002d0: c415 ce3c df5d 313c c668 26bd 9898 8f3d
000002e0: f374 00be 3fe6 373d 0331 2c3d d7c8 b5bd
000002f0: abc7 813d d831 e7bd 906a 063e da6a fd3d
00000300: 9b92 853c c15c 3f3b 68a3 44bc 77a7 713e
00000310: afff 4bbd 3d44 f03d 0e41 133e 9897 97bd
00000320: 0941 4b3d 32d7 64be aa6f 8d3c 16e2 82be
00000330: 5716 c9bd daee 833e 92c8 42bd 9790 513e
00000340: 91f5 d93c 0512 16be b226 71bb 6452 3fbe
00000350: 0eac 07be 5795 8b3d 7f0a d2ba 5c5f 39be
00000360: 2c32 9b3c 6d4c ae3c 7cf6 d1bd 1913 af3d
00000370: d8ba 8e3e 200b 92bd 6211 e53c af53 f73d
00000380: efb6 f0bd 51aa c1bd 9d5c aebd 649e 29bc
00000390: cf81 d3bd d791 82bd 575b fabc a167 583d
000003a0: e76c b2bd 0fd7 183d 5ad2 443e 8beb 76be
000003b0: 23c8 113d aa5b 3abd c873 49bd a151 333d
000003c0: b1f0 223d 134f 8c3d e661 ce3c 3f87 8c3d
000003d0: 06ca 8b3d 11b6 123e 67cb 4f3d d19e f23d
000003e0: f554 38bc f3b3 fb3c 4d75 50bd aecd 9e3d
000003f0: ae6d 7bbc 0ca7 663e 65c4 da3d 2259 8d3d
-0.04894362 -0.16763389 -0.0514516 0.079922326 0.11183631 0.056468826 -0.12307782 0.24789405
-0.027680904 -0.030093616 0.03059524 -0.006088365 0.05877776 0.16660996 -0.22765732 -0.08269661
0.0027921137 0.11936624 0.15270628 -0.28645265 -0.027501898 -0.06920542 -0.23390889 -0.035405446
0.18837932 -0.12399844 0.047953695 0.09439107 0.021614958 0.2517908 -0.2708584 -0.22116947
0.11240778 0.06533305 0.23595998 0.010339239 0.09279956 -0.012905111 -0.0076239295 0.0045461943
0.18621449 -0.24633496 -0.047406197 -0.23819737 -0.033216562 0.004518889 -0.08915297 0.1403894
0.29274556 0.06886323 -0.20362648 -0.06491069 -0.04292038 -0.07359509 0.09875503 -0.1454416
-0.06450937 -0.09391497 -0.04811214 0.15260358 0.2773512 0.041062098 0.15180461 -0.049509984
-0.05832923 -0.11615794 -0.07781101 -0.22302073 0.01639887 -0.10738112 0.25556824 -0.09685127
-0.003995308 -0.030693058 -0.1294684 -0.039023235 0.08856818 -0.07245727 0.025706392 -0.1068139
0.062465984 0.16632971 0.060695637 -0.16440764 -0.055391315 -0.23298264 0.003170657 -0.037450448
-0.025398094 0.12587622 -0.07264458 -0.21376054 -0.06605059 0.16076833 0.007666774 -0.011379816
-0.13557142 -0.13546151 0.17497993 -0.14155503 0.20124224 0.1104398 -0.06357601 -0.17616034
-0.07572086 0.08483087 0.058251224 0.09438959 0.08444737 -0.14360079 0.08673724 0.15671243
-0.16148797 -0.1386285 -0.10683378 0.051504925 0.08538308 -0.0029129856 -0.06755336 0.15931743
0.17889124 -0.105955 0.22359389 -0.09095021 -0.15460706 0.18446378 0.22441487 0.06096586
-0.06559144 -0.043583553 -0.093748994 -0.08969293 0.08404434 -0.023707185 -0.11378371 0.022069335
0.122222655 0.0679059 0.0046384274 0.12373936 -0.23792797 0.013888764 0.021547556 -0.011156138
0.20068532 -0.004331039 0.22591856 -0.0005095733 -0.2000217 0.37697074 -0.13331011 0.11228509
-0.27932963 -0.189885 0.11768701 -0.13959949 0.14645556 0.11326772 0.06550933 -0.032555893
-0.108564466 -0.061481178 0.09654299 0.04062295 -0.065114886 0.08134445 -0.07869157 -0.11763458
-0.22497356 0.05792796 0.04716807 0.039445654 -0.06191005 0.05159657 -0.12874973 -0.21608923
-0.12578277 -0.25363886 -0.065220885 -0.009141184 0.025156863 0.010825603 -0.040627263 0.07011527
-0.12544613 0.044897314 0.04203893 -0.08876198 0.06336912 -0.11288804 0.13126588 0.12373896
0.016305258 0.0029199573 -0.01200185 0.23599039 -0.049804386 0.117317654 0.14380285 -0.07401961
0.04962257 -0.22347715 0.01726516 -0.25563115 -0.09818714 0.25768167 -0.04755456 0.20465313
0.026606353 -0.14655311 -0.0036796746 -0.18683773 -0.13249227 0.06815594 -0.0016024857 -0.18102783
0.018944822 0.021276677 -0.10252091 0.085485645 0.27876925 -0.07131028 0.02796239 0.12076508
-0.11753642 -0.094563134 -0.08513758 -0.010352705 -0.103274934 -0.06375473 -0.030561132 0.052833203
-0.08712178 0.03731447 0.19220868 -0.2411329 0.035591256 -0.045497574 -0.049182683 0.04377902
0.039780322 0.0685102 0.025193166 0.06861734 0.06825642 0.14327265 0.05073109 0.11846698
-0.011250724 0.030725455 -0.050893117 0.07754074 -0.015345974 0.22524661 0.106819905 0.06901766

rnn.weight_hh_l1 f4 [256, 256]
00000000: 582b 2bbd 1844 e2bc 5891 4b3c 0cc6 7abd
00000010: 080d 723c 8078 fabb a0be 29bc fed3 22bd
00000020: 901e 01bd 92f5 5ebd 6844 0bbd 001b 2cbc
00000030: 3cf6 7d3d 1ae0 56bd 0668 5d3d 500d 90bc
00000040: 3a5c 13bd b0d6 debc 1822 fdbc 6674 71bd
00000050: 6839 c3bc 78e2 b7bc c093 013b d895 553d
00000060: a687 5bbd 60f8 973b 1849 d6bc 1e25 773d
00000070: c0fd c23a e8cd 6ebd 0cf7 203d 2804 10bd
00000080: e8ad 713c fc9d 7c3d eaf7 0a3d 6891 a8bc
00000090: f0c6 5fbc 12c1 793d 842c af3c 3489 29bd
000000a0: 9812 5ebc 54bb bd3c 60f9 7d3c 10c3 c7bc
000000b0: 3892 2fbc cc5c e63c c62e 0c3d 4085 30bc
000000c0: 6c20 d3bc beef 023d b855 933c 9cf1 efbc
000000d0: 40f9 eabb ded2 65bd 82a5 30bd 9482 17bd
000000e0: 78cf 90bc 68cd 9bbc 2e87 49bd e0f6 653d
000000f0: 3009 9ebb 92f0 4abd 6878 673d 785a ecbc
00000100: 9223 29bd 54e5 27bd 20af 2e3b a65a 14bd
00000110: 149d 32bd 2869 383c 40cf 4ebb 6851 223c
00000120: c841 3ebc 7068 313c 3a48 7b3d c84c 3fbc
00000130: 7e6e 3c3d 4a8a 30bd 508a 053d c0ce cebc
00000140: e69f 243d 7864 52bd cefe 3d3d 7665 303d
00000150: dc84 833c 70c3 e5bb 18fe 01bd 8815 5f3c
00000160: 9abe 76bd 8257 0e3d 3c15 7ebd 2827 f6bc
00000170: 20a7 a7bc 70ca 75bd f003 c6bc f6c5 3cbd
00000180: d0c0 fb3b 76d7 303d 60ff 7dbd 80cc 21bb
00000190: 66e8 14bd 1068 5a3c b4ed ad3c 6828 2c3d
000001a0: 109c ab3b d0f9 afbc 989e 7c3c 8039 3e3a
000001b0: 408d 1e3c 90d0 ba3b 607d f3bc 74cb fc3c
000001c0: 9095 1ebd 10bf b23c 346f 6ebd 20c4 b3bc
000001d0: e440 26bd b074 44bd a817 3f3c e28b 723d
000001e0: 9038 0ebc 1a0f 0e3d f604 4f3d ce25 05bd
000001f0: b68a 153d 406d 8cbb 48d0 103d 088f ed3c
00000200: 2e7c 50bd d465 89bc 48f7 2dbc 9899 2cbd
00000210: c815 94bc 04af 9bbc 70c0 cd3c 9475 9bbc
00000220: 4a37 4ebd 8aec 1f3d f6eb 603d e867 743d
00000230: d464 033d 6e36 5cbd 4ada 1fbd 5471 28bd
00000240: d234 60bd 748e 3ebd 22ed 5ebd 5a98 2cbd
00000250: 86f1 35bd 1877 043d aabf 6f3d d255 4fbd
00000260: 7446 4cbd 1413 b1bc 0ebe 1a3d 5027 dd3c
00000270: 8081 e4bb 00c1 783c 6a10 50bd 4087 6a3d
00000280: e070 b83c 9803 923c 7a52 1e3d 129c 5c3d
00000290: f43d 883c 409c f43c 34ed 083d a02a 76bd
000002a0: 94a5 efbc 90a8 36bc 80ec a53c 44a4 a53c
000002b0: 60e4 7e3d f822 8d3c 101c 3e3c fcd3 3ebd
000002c0: 8021 443c 70e5 1dbc b849 1f3c 0098 bf3a
000002d0: 7a1d 373d 8295 3fbd c487 d33c ea1a 7f3d
000002e0: 4093 bc3c 4089 b7ba a01b 6abb a054 9b3b
000002f0: 349c 0d3d 6c87 6b3d 9099 aa3c b01d e7bc
00000300: ce62 70bd 9807 143c e4b1 7a3d 7c80 743d
00000310: 1ea8 413d a045 273b c0d2 253c 80c3 ef3c
00000320: ae57 19bd 30ea 2a3d c0a6 f8bb 3e8b 113d
00000330: a8e3 a1bc 18c0 b63c acda 90bc 8092 653d
00000340: f2de 66bd a029 f33c 906d 133c 5a0f 01bd
00000350: 68aa 973c 56a8 65bd 74b5 f93c 4041 a93a
00000360: dc28 863c 4033 c3ba 9027 523c b45e 033d
00000370: 845a 74bd 9cad f3bc 28c1 a6bc 5ace 12bd
00000380: 1878 103c 8a53 383d 8e35 0e3d 487f fd3c
00000390: f847 553d f00c fb3c aa56 33bd 101a d9bb
000003a0: f8cb d33c 941c 9b3c 569b 7fbd fe2c 493d
000003b0: e0f2 44bd 60a0 f73c 06ac 3f3d e852 75bd
000003c0: 8c4f fabc 40b5 93ba 90dc 0bbc f095 b1bc
000003d0: 1ea2 583d e4ea f63c 7cac 21bd 5038 023d
000003e0: 40ff 333b 1ad0 4e3d fc05 0abd fc02 093d
000003f0: aae1 47bd 80df 1bbc 4eb4 57bd 8046 91ba
-0.041789383 -0.02762036 0.012424789 -0.06122403 0.014773615 -0.0076437593 -0.01036039 -0.039752953
-0.031523287 -0.054433413 -0.034000784 -0.010504484 0.062002406 -0.052459814 0.054054283 -0.017584473
-0.035976626 -0.02720198 -0.030900046 -0.058948897 -0.023831084 -0.022446856 0.0019771904 0.052144855
-0.05359616 0.004637763 -0.0261579 0.060338132 0.0014876649 -0.058301836 0.039298102 -0.035160214
0.014750935 0.061674103 0.033927836 -0.020577148 -0.01365827 0.06097514 0.021383531 -0.041390613
-0.013554238 0.023160614 0.01550135 -0.024385005 -0.010716014 0.02812042 0.034224294 -0.010773957
-0.025772296 0.031966917 0.01798521 -0.029290013 -0.007170826 -0.0561093 -0.04312659 -0.036989763
-0.017677054 -0.019018844 -0.049201183 0.05614364 -0.0048228726 -0.049545832 0.056511313 -0.028851733
-0.041293688 -0.04099019 0.0026654676 -0.03621926 -0.043606833 0.01125554 -0.0031556636 0.009907104
-0.011612363 0.0108281225 0.061348177 -0.011676021 0.04600381 -0.043100633 0.03260261 -0.02524507
0.040191554 -0.051365346 0.04638558 0.04306551 0.016054563 -0.0070118234 -0.031736463 0.013615973
-0.060240366 0.034751423 -0.06203197 -0.030047968 -0.020465434 -0.060007513 -0.0241718 -0.046087228
0.007682897 0.04317423 -0.062011123 -0.0024688542 -0.036354445 0.0133304745 0.02123151 0.042030722
0.00523711 -0.021481425 0.015418671 0.0007256493 0.009677231 0.005701132 -0.02972287 0.030858733
-0.038716853 0.021819621 -0.05821152 -0.021944106 -0.04058923 -0.047962844 0.011663355 0.059215434
-0.008680478 0.03468237 0.05054184 -0.032506756 0.03650924 -0.0042854846 0.035354882 0.028998867
-0.050899677 -0.016772188 -0.0106180385 -0.042138666 -0.018076792 -0.019004352 0.025116175 -0.018976964
-0.050345697 0.03904394 0.05491253 0.059669405 0.03207858 -0.053762846 -0.039026536 -0.041123703
-0.054737873 -0.046522573 -0.054425366 -0.04213748 -0.044419788 0.03234014 0.058532394 -0.050618954
-0.049871877 -0.021615542 0.037778907 0.026996285 -0.0069734454 0.015182734 -0.050796904 0.05725789
0.02251476 0.01782398 0.038652875 0.053859778 0.016631104 0.029859662 0.03342934 -0.060099244
-0.029253758 -0.011148587 0.020254374 0.02021993 0.062229514 0.017228588 0.01160337 -0.046588883
0.011970878 -0.009637222 0.009722166 0.0014617443 0.044705845 -0.04677344 0.025821574 0.062281527
0.023019433 -0.0014002696 -0.0035722032 0.0047403127 0.034572795 0.057502195 0.020825177 -0.028212398
-0.058687977 0.009035014 0.061204806 0.059692845 0.04727947 0.0025523677 0.0101210475 0.029268026
-0.037437133 0.041727245 -0.0075882375 0.035533182 -0.019761875 0.022308394 -0.017682396 0.056047916
-0.05636496 0.029682934 0.00899829 -0.03150878 0.018513873 -0.05606874 0.030482031 0.0012913123
0.016376905 -0.0014892593 0.012826815 0.032072738 -0.059656635 -0.02974587 -0.020355776 -0.035841323
0.008817695 0.045001544 0.034719042 0.030944481 0.052070588 0.030645818 -0.04378382 -0.0066254213
0.025854096 0.018934526 -0.062404 0.049115174 -0.048083186 0.03022784 0.046794914 -0.05989352
-0.030555509 -0.0011269227 -0.008536473 -0.021677941 0.052888982 0.030141301 -0.039471135 0.031791985
0.0027465373 0.05049143 -0.033697113 0.03345011 -0.048799194 -0.009513736 -0.052662186 -0.0011083633

rnn.bias_ih_l1 f4 [256]
00000000: fcde 5e3d 7857 95bd b03a 1cbe 3885 efbd
00000010: 675f 29bb 3384 403e 29d5 bd3d 2391 543d
00000020: 6d56 b1bd e071 d93d f630 743d fcaf debd
00000030: 0253 b9bc 4ed1 e53d 9816 09be 5456 bf3d
00000040: e01e 99bd 9da5 b43d 657d f2bd 9054 c23b
00000050: e89b b6bd 88be e0bc ab02 053e d039 38bd
00000060: 127e 1abe c185 57be 6dba 293e b604 89be
00000070: 6aab 0c3d b6ac c13d d57c 233c f848 1a3e
00000080: 9fd0 1e3e b8bc 2fbe 3bf3 1fbd 6939 81bd
00000090: fea3 ccbd 71a6 033e 8bff 523e 7de3 1c3e
000000a0: ee59 5ebd fba6 1cbe 7689 133e 260a 0d3e
000000b0: abef 83bd 9258 1fbe 4c32 bbbd 350e 883e
000000c0: 1e98 3bbe fb0c 9d3d 86af d7bd a5e4 183e
000000d0: c6f3 2b3e d560 193e 6d69 373e 6447 6c3d
000000e0: ba2d 793b bc38 183e 29a1 bb3d 6179 98bd
000000f0: 0d13 0fbe 15d5 e0bd 0736 7a3d 0456 833e
00000100: a2b5 33be bda4 323e ff83 6fbe eeef 49bd
00000110: bcec 703e 391b f53d 1602 1e3d ae97 b33d
00000120: 331a 9a3d 856b 1a3d c6c1 613e 42d0 c9bd
00000130: 0608 933d b704 87bd c0a9 a63c b8f7 57be
00000140: 2b44 82be 270d 3f3e e4ce 23be 27c0 16bd
00000150: 3da2 63bd 4d77 b13d 6e3f 5fbe 9113 463e
00000160: ddc2 f9bd 6be5 1f3e 58cd 4f3e 9309 2dbd
00000170: fcb1 703e 183e 72bd f4fa 3cbe 780a 7c3e
00000180: 9783 3e3e 40c9 84bd 5c8f 0d3e 4645 83be
00000190: b76f eebd be80 f1bd 3b99 f4bd b788 e23d
000001a0: f9cc 4dbe 9527 44be fdb6 1f3e d91b 9b3d
000001b0: d73c 063e df60 33be a7ff c6bd e282 993d
000001c0: 3f97 13be 3e18 463c 7717 bd3d 9ed6 1d3d
000001d0: 9877 603e 28f5 4bbd bb50 813e c160 6a3c
000001e0: ad68 19be f97f a8bb 784a 173e 0cbb 583c
000001f0: 4c2f 53be 6d03 0cbe ae40 f5bd 0d75 a53b
00000200: 0ec0 02be 356f 4ebe dba5 bebd a66d cb3d
00000210: f069 f83d e9ad 5bbe 3959 33be 9c4a 90bc
00000220: c7e3 10be d4c1 57bd 62ef 07bb a673 15be
00000230: de6d 2b3e 488f 663e fca9 6c3e 0c38 5bbd
00000240: 7bbb 40bc ca99 8bbc 1433 41be f12b f2bd
00000250: f872 7b39 0aea e8bd dadd 56bd 6cd4 bd3d
00000260: 758f cc3c 3755 2d3d a817 a8bc 0e6c 68be
00000270: 5e80 ae3d 9645 16bd 229e 323e 1eea 5d3e
00000280: 2828 a83d fe74 c4bc 0b0a 87bd 6e95 1dbe
00000290: 62a1 95bc 9dbc 9cbb f215 79bd 8437 173e
000002a0: 3574 03bd a227 91bd a036 a3bb bde4 df3d
000002b0: fa42 a83d 8e80 4f3e 3366 8abd 733c a5bb
000002c0: 9e19 e83a 257a 343d f5ab 253e 061d 0b3e
000002d0: 31ee 9cbc a33f e2bd d0c8 813d cc83 a53d
000002e0: c519 da3d 6ad7 a4bb 8798 423e 738c 4cbd
000002f0: 3e29 553e 497d fc3c 679e 913d eabf 313e
00000300: cbb6 a33d c570 bcbd 66ec 17be bf2c f5bd
00000310: 77e7 d5bc a4ac 963d 0e15 f3bd 03ae 33bc
00000320: f4b7 72bd c050 593d 4618 bc3c 2ff7 3cbd
00000330: 0502 de3d 52a4 753e 5f03 1c3e 3da5 ee3d
00000340: 03cc 5cbe 566e 52be c420 7c3e 1788 4bbe
00000350: 72ad 1cbe 6699 b8bc 487d 413e c084 39be
00000360: 0d22 9a3d 8607 bbbc 0636 223b a82d 0f3e
00000370: a0d6 56bd c1c7 39be a0e5 0d3d 1469 2b3d
00000380: 1599 74be 9c1b 0fbd 18b0 97bc ded6 373e
00000390: 0f4e c53d 74e4 163d a575 a93d bcb9 23be
000003a0: 61bf 55be 0047 ef3c 4f1d 4cbe 37e1 debd
000003b0: 2165 abbc 9ae6 afbc a5c5 5bbd b0d6 c2bd
000003c0: a92f 483e 029c 2bbe 528d 67bd 965e e03d
000003d0: 854e 5cbe a84c babd 5cb7 d23d 497f e1bc
000003e0: 8daa 163e 2df0 03bd 6fb1 e8bd 4cc3 05bc
000003f0: 445d d63c c501 dbbd de99 523a 791f 7e3e
0.054411873 -0.07292074 -0.15256763 -0.11695331 -0.0025844218 0.1880043 0.09269173 0.051896226
-0.086590625 0.10617423 0.059617005 -0.1087341 -0.022622589 0.11221562 -0.13387525 0.09342638
-0.07476592 0.08820651 -0.11840323 0.005930491 -0.089164555 -0.027434602 0.12989299 -0.04497701
-0.15087155 -0.21047117 0.16575022 -0.26761407 0.03434316 0.0945677 0.009978493 0.15066898
0.1550927 -0.17161834 -0.039050322 -0.06309778 -0.099922165 0.12856461 0.20605294 0.15321155
-0.054284982 -0.15298073 0.14407906 0.13773403 -0.064421974 -0.1556113 -0.09140453 0.2657334
-0.18319747 0.076684915 -0.10531525 0.14930971 0.16792211 0.14978345 0.1791131 0.05768527
0.003802164 0.14865392 0.09161598 -0.07445026 -0.13972111 -0.10978142 0.06108668 0.25651562
-0.17549756 0.17445655 -0.23390196 -0.04930108 0.23527807 0.11968083 0.038576208 0.08769165
0.07524528 0.037700195 0.22046575 -0.09854175 0.07179265 -0.06592696 0.020344615 -0.21090591
-0.25442633 0.18657361 -0.15996891 -0.036804345 -0.055574644 0.08665333 -0.2180154 0.19343401
-0.1219537 0.1561486 0.20293176 -0.04224546 0.23505396 -0.05914125 -0.18455106 0.24613369
0.18604885 -0.06483698 0.13824219 -0.2563879 -0.11642402 -0.11792134 -0.11943289 0.110612325
-0.20097722 -0.19155724 0.15597148 0.07573671 0.13109146 -0.17517422 -0.097167306 0.07495667
-0.14413165 0.012090741 0.09232991 0.038534753 0.21920621 -0.049794346 0.25256905 0.0143052945
-0.14981337 -0.0051422087 0.14774501 0.013228189 -0.20623511 -0.13673182 -0.11975227 0.005049354
-0.12768576 -0.2015961 -0.09308978 0.09933023 0.12129581 -0.2145306 -0.17514504 -0.017613702
-0.1414939 -0.052675083 -0.0020742049 -0.14594898 0.1674113 0.22515595 0.23111719 -0.053520247
-0.011763449 -0.017041106 -0.18867141 -0.118247874 0.00023980055 -0.113727644 -0.052457668 0.09269032
0.02497075 0.042317595 -0.020519093 -0.2269747 0.08520578 -0.036687456 0.17443135 0.2167134
0.08210784 -0.023981567 -0.065937124 -0.15389034 -0.01826543 -0.0047832266 -0.060811944 0.14767271
-0.032093246 -0.070876375 -0.004980877 0.109323 0.082159 0.20263883 -0.06757774 -0.0050426065
0.001770783 0.0440618 0.16178878 0.1358529 -0.019156547 -0.11047294 0.0633713 0.08081779
0.106494464 -0.005030562 0.19003497 -0.04993863 0.20816514 0.03082146 0.07110291 0.17358366
0.07993849 -0.092011966 -0.14836273 -0.11971425 -0.026111348 0.07357147 -0.1186925 -0.010966781
-0.059257463 0.053055525 0.022960793 -0.04613417 0.10840229 0.23988464 0.15235661 0.116526105
-0.215622 -0.20549902 0.24621874 -0.19876133 -0.15300539 -0.022534084 0.18895447 -0.18117046
0.07526026 -0.022830736 0.0024751439 0.1398226 -0.052450776 -0.18142606 0.034642816 0.041848257
-0.23886521 -0.03493844 -0.018516585 0.17953059 0.09634029 0.036838964 0.08274392 -0.15988821
-0.20873787 0.02920866 -0.19933055 -0.108828 -0.020922245 -0.021472264 -0.053655285 -0.09513605
0.19549431 -0.16758731 -0.056531258 0.10955541 -0.21514328 -0.09096652 0.10288879 -0.027526515
0.14713497 -0.03221147 -0.11361968 -0.008164238 0.02616752 -0.10693697 0.0008033792 0.24816693

rnn.bias_hh_l1 f4 [256]
00000000: 3277 a33d ed0a ecbc c006 07be 338e 4ebc
00000010: bbe0 60bc 5bea 673e 6895 f43d 735f 273d
00000020: 9a5e f2bd 4cce f13d f92d cdbc 70e2 babd
00000030: 83b5 a43d f973 c23d 98f3 88bd 606d 273e
00000040: 8ba8 33bd 4999 4b3e 6112 8fbd 4803 c73d
00000050: eb51 9ebc 3884 cabd b1c6 783d 3c75 223d
00000060: fc0a f3bd a4b1 39be 8732 1f3e ecc9 30be
00000070: 3d97 e93c 962a 0f3e 5644 e8bc 3ad2 143e
00000080: 37ce 243e 3abf 49be 9907 b8bd 5b96 593d
00000090: b292 d3bd c747 563e e15d 513e e97f b83d
000000a0: 19c3 7e3c fba0 2dbe ae98 2d3e c12e 123e
000000b0: fa99 4fbb b2df fcbd 8888 eebd d589 933e
000000c0: 688b 2dbe 3177 193e 31f1 fabd e21c cd3d
000000d0: ac88 6e3e a7f8 f73d d281 883e a813 ef3a
000000e0: 8b70 90bd 1205 173e 3fa2 e73d 716a efbd
000000f0: b3e3 33be fb20 c5bd 8d0d 82bb ffa3 3d3e
00000100: 0127 c4bd 7f27 383e a175 76be cc47 9ebd
00000110: 0260 423e 8bcf c23d 1551 053c 483e d93d
00000120: 2881 223c 1d2d 813d 768d 613e 2b5a 80bb
00000130: 5331 0f3e 0725 40bd 354d 133d aeab 50be
00000140: 44fc 7cbe 8da3 503e 1645 6cbe c3f8 63bd
00000150: a97f cfbd 89a1 d53d f42d 60be 47b2 483e
00000160: 9701 b2bd a71e 283e 9810 c93d 9619 c23a
00000170: 4d9b 7c3e 1b6d 5ebb fa1e 0dbe 0add 583e
00000180: 2dbe 343e 7ee2 f7bd 4c91 1f3e 592a 08be
00000190: 20ff 73bd 302e f5bd c888 03be 140b 1d3e
000001a0: e442 f9bd 4388 64be 4521 293e 6350 893d
000001b0: 5f0f 093e dbe3 14be 169a acbc b593 203e
000001c0: fd8e 53be 8ddf af3c 9d55 e03d 831c ca3d
000001d0: 2c43 6f3e e15c ffbd 1e94 553e f414 d53d
000001e0: 8245 7dbd e614 32bd 9798 e53d 9dfe 40bd
000001f0: faee 44be e2c2 10be 87cb 38be 00db 0b3d
00000200: 9113 34bd b9f3 29be f907 07be 3376 4c3e
00000210: 36ca 123e 756b 81be 331c 5fbe ff0d 4b3d
00000220: 03ce 4cbe 9762 0ebc 6d71 0dbd 328f d5bd
00000230: 8835 113e f98b 793e 6655 0f3e 2ba8 1cbe
00000240: b39d 4fbd bc36 523d 6556 0bbe 2aee 3ebe
00000250: a0ea a039 775f 13be b0fb 6d3b 61a4 0a3e
00000260: 8f98 053e 1c10 bbbc 2188 73bd 0863 17be
00000270: a738 52bc fe83 09be 06c7 573e f634 0a3e
00000280: ea26 db3d 9a53 93bc 1906 b9bd 4c65 86bd
00000290: 70fd 343a b589 9fbc 1505 8dbd acf0 003e
000002a0: 250c 783d 5e04 27bd 2c68 ef3b 6b8d e33d
000002b0: 17fe 11bd 7c17 1a3e f5d6 d4bd 7a1d 463d
000002c0: da93 8a3c 5b49 e03d 2a83 e33d 2275 163d
000002d0: 2805 363d b987 a9bd 8bb6 b83d 006b c93d
000002e0: 3bef 9e3d 9064 773d ebd9 2d3e 5e6b c6bd
000002f0: 10f7 683e e22f 903d ef24 773d 8439 1a3e
00000300: 5135 b93d 68bf 1ebd 9a9e 1dbe 9823 10bd
00000310: 38b7 e0bb 52e6 ee3d b4fd e1bd bb78 f8ba
00000320: 995e f7bd d227 403d b20b 303d e127 66bd
00000330: bbfd bd3d 743c 7d3e 0a6f 843d d633 4f3e
00000340: 874b 5abe 36df 4abe be2b 753e fb01 5abe
00000350: b414 b4bd 02d9 36bd 1629 de3d 9d5d 15be
00000360: d79a a03d 0ff0 afbd 0a63 de3c 3072 173e
00000370: 64f0 843c 0d4c f7bd 9c93 80bd db0f 803d
00000380: 1d9e 7abe 5b49 d8bc 06f6 e8bd ba5d 0a3e
00000390: 1cc6 473d 6a00 b13d 4cdf d43c 398f 00be
000003a0: 7de4 35be f4f3 923d d58f 44be b254 27be
000003b0: 6117 8dbb 329d d5bc fa3e 64bd 5418 47be
000003c0: 2b5e 373e 4f4b babd ac74 b0bd fa3b e53d
000003d0: cd45 5cbe 50cf dcbd 3a13 0c3e 2c4c 4fbd
000003e0: ca17 133e 757e 25bd d88d a7bb 28f9 263d
000003f0: e70c 073e 6644 ffbd a6e4 423b 4906 493e
0.07981719 -0.028813804 -0.13186169 -0.012607145 -0.013725455 0.22647993 0.119425595 0.04086251
-0.1183445 0.11806926 -0.025046336 -0.09125221 0.08042433 0.09494776 -0.06687087 0.16350317
-0.043861907 0.19882692 -0.069859274 0.09717423 -0.01932617 -0.098885 0.060736362 0.039662585
-0.118673295 -0.18134171 0.15546618 -0.17264527 0.028514499 0.13981089 -0.028352898 0.1453332
0.1609429 -0.19701853 -0.08985824 0.053121906 -0.10330714 0.20925818 0.20445968 0.09008772
0.015549445 -0.1695594 0.16952774 0.14275648 -0.003167747 -0.12347354 -0.11647135 0.28816095
-0.1694771 0.14986874 -0.12253035 0.100152746 0.23294324 0.121079735 0.26661545 0.0018240111
-0.07052716 0.14748028 0.11310243 -0.11690224 -0.17567329 -0.09625431 -0.0039689005 0.18519591
-0.09577752 0.17983817 -0.2406831 -0.07728538 0.18981937 0.09512242 0.008137007 0.10607582
0.009918489 0.06307433 0.2202662 -0.003916999 0.1398366 -0.046910312 0.035962302 -0.2037799
-0.24705607 0.2037489 -0.23073229 -0.05565716 -0.10131771 0.10431201 -0.2189253 0.19599257
-0.086917095 0.16417943 0.09817618 0.0014808651 0.24668618 -0.0033939544 -0.13781348 0.2117807
0.17650671 -0.12103747 0.1558277 -0.13297404 -0.059569478 -0.119717 -0.12845147 0.15336257
-0.121709615 -0.22317605 0.16516598 0.06704786 0.1338477 -0.14540045 -0.021069568 0.15681346
-0.20660014 0.021468902 0.109538294 0.098687194 0.23365468 -0.12468887 0.20857283 0.10404387
-0.061833866 -0.04347696 0.11210745 -0.04711782 -0.19231787 -0.14136842 -0.1804639 0.0341444
-0.043963972 -0.16596879 -0.13186635 0.19966964 0.1433495 -0.25277296 -0.21788101 0.049573895
-0.20000462 -0.008690498 -0.034532 -0.10427703 0.14180577 0.24369802 0.1399742 -0.15298526
-0.050687503 0.05132173 -0.13607176 -0.1864554 0.00030692387 -0.14391886 0.0036313348 0.13539268
0.13046478 -0.02283483 -0.059455995 -0.14783871 -0.01283089 -0.13429257 0.21072015 0.13496765
0.10700782 -0.0179842 -0.09034366 -0.065622896 0.000690422 -0.019474844 -0.06885735 0.12591809
0.060558457 -0.04077565 0.0073061194 0.11110958 -0.03564271 0.15048021 -0.10392562 0.048367955
0.016916204 0.109514914 0.11109002 0.0367328 0.04443851 -0.0827784 0.09019192 0.09834862
0.07760473 0.06039864 0.1697766 -0.096884474 0.22750497 0.07040383 0.060337957 0.15061003
0.090433724 -0.038756758 -0.15392533 -0.035190195 -0.006857779 0.11665024 -0.11034718 -0.0018956879
-0.1207859 0.046912976 0.042979904 -0.056190375 0.09276911 0.24730092 0.064664915 0.20234618
-0.21317874 -0.1981171 0.23942468 -0.21289818 -0.08793011 -0.04464055 0.1084768 -0.14586492
0.07842033 -0.085907094 0.027146835 0.14789653 0.016227908 -0.120750524 -0.06278154 0.06253024
-0.24474378 -0.026402166 -0.1137505 0.13512316 0.048772916 0.08642657 0.025985382 -0.12554635
-0.17762943 0.071754366 -0.19195493 -0.16340902 -0.0043057655 -0.026075933 -0.05572412 -0.19442874
0.17907016 -0.09096395 -0.086160034 0.1119308 -0.21511002 -0.10781729 0.1367921 -0.050609753
0.14364544 -0.040403802 -0.0051133446 0.040764958 0.13188516 -0.12464218 0.0029738336 0.19631304
